…
   #+attr_latex: :placement [H]
   [[file:img/mspacman_obs.png]]
   在训练跳一跳的神经网络之前，我们对 Ms. Pac-Man 进行了训练。
   Ms. Pac-Man 的游戏画面是 \(210\times160\) 的 RGB 图，我们首先对它进行压缩处理并灰度化，
   得到\(88\times80\)的灰度图，如图[[img:mspacman_obs]]所示。
   处理后的图像作为神经网络的输入，神经网络的输出对应玩家可以执行的 9 种动作，
   神经网络的结构见表[[tab:mspacman_layer]]。
   #+caption: 训练 Ms. Pac-Man 时使用的神经网络结构。
   #+name: tab:mspacman_layer
   #+attr_latex: :placement [H]
   |---------------------+--------------------+---------|
   | Layer (type)        | Output Shape       | Param # |
   |---------------------+--------------------+---------|
   | conv2d_1 (Conv2D)   | (None, 22, 20, 32) |    2080 |
   | conv2d_2 (Conv2D)   | (None, 11, 10, 64) |   32832 |
   | conv2d_3 (Conv2D)   | (None, 11, 10, 64) |   36928 |
   | flatten_1 (Flatten) | (None, 7040)       |       0 |
   | dense_1 (Dense)     | (None, 512)        | 3604992 |
   | dense_2 (Dense)     | (None, 9)          |    4617 |
   |---------------------+--------------------+---------|
   由于计算资源比较差（单核 CPU，无 GPU 加速），经过了十多天的训练，结果仍然不是很理想。
   训练过程中分数变化如图[[img:mspacman_score]]所示。
   经过了 24077 次游戏，平均分 108.1，标准差 88.8，最低分 40，最高分 3400，
   神经网络的表现没有比随机操作表现的好多少。
   我们分析这主要是由于训练过程中，高分的经验太少，神经网络还没有积累足够的高分经验。
   #+begin_src python :exports none
import pandas as pd
import matplotlib.pyplot as plt

with open('workspace/mspacman-logs.txt', 'r') as f:
…
   [[file:img/mspacman_score.png]]
   由于跳一跳游戏不是在模拟器上进行而是在实际的手机上操作，如果直接采用算法\ref{alg:DQN}训练神经网络将会需要更长的时间。
   为了解决深度增强学习收敛太慢的问题，我们首先采用监督学习的方法对神经网络进行了预训练。
   训练跳一跳使用的神经网络结构与训练 Ms. Pac-Man 使用的神经网络结构类似，具体地见表[[tab:jump_layer]]。
   神经网络的输入是分辨率为\(256 \times 256\)的灰度图，它由原始游戏图像经过裁减压缩并灰度化处理得到。
   神经网络的输出是一个整数，表示屏幕触摸时间。
   #+caption: 训练跳一跳时使用的神经网络结构。
   #+name: tab:jump_layer
   #+attr_latex: :placement [H]
   |---------------------+--------------------+----------|
   | Layer (type)        | Output Shape       |  Param # |
   |---------------------+--------------------+----------|
   | conv2d_1 (Conv2D)   | (None, 16, 16, 32) |     2080 |
   | conv2d_2 (Conv2D)   | (None, 32, 32, 64) |    32832 |
   | conv2d_3 (Conv2D)   | (None, 32, 32, 64) |    36928 |
   | flatten_1 (Flatten) | (None, 65536)      |        0 |
   | dense_1 (Dense)     | (None, 512)        | 33554944 |
   | dense_2 (Dense)     | (None, 1)          |      513 |
   |---------------------+--------------------+----------|
   上文讨论的基于图像处理的跳一跳自动控制方法取得了非常理想的效果，
   因此，我们使用这种方法获取了大量的游戏画面并标注了每幅图片对应的屏幕触摸时间，将这些数据作为监督学习的训练数据。
   实验中，我们的训练数据总共有 1384 帧。训练之后我们又标注了 508 幅游戏画面，作为测试数据，测试结果如图[[img:jump_train]]所示。
   图中 t 是基于图像处理的跳一跳自动控制程序得到的屏幕触摸时间，y 是神经网络给出的屏幕触摸时间。
   t 的平均值为 596.3，标准差 211.4。y 的平均值为 489.3，标准差 44.5。
   尽管两者数值上差距比较大，但是他们的变化趋势基本一致，如图[[img:jump_train_30]]所示。
   #+begin_src python :exports none
…
